data.pth (torch, 5823 bytes, 6 tensors)

l1.weight f4 [8, 63]
000000 c7 ad dc 3e ca fa 66 bd f9 69 91 3e 81 79 11 bf
       0.43101332 -0.056391515 0.28401163 -0.56826025
000010 88 de 23 3f e5 0e cb 3e 69 a1 08 3f 90 98 46 3f
       0.6401143 0.396598 0.5337129 0.7757654
000020 45 7c b6 3e fe de e1 3f 43 df 90 bf 0f 8b 44 be
       0.35641685 1.7646177 -1.1318134 -0.19193672
000030 b1 25 50 3f 36 ed d4 be d3 cd 9f be 53 7d de 3e
       0.8130751 -0.41587228 -0.3121172 0.4345499
000040 7c ab d6 3e 17 c8 5c bd be 15 8e 3c 43 54 49 be
       0.41927707 -0.053901758 0.017344352 -0.1966105
000050 2c 18 ae be 3d 5f d8 3f 2d b8 09 bf 64 76 9b 3e
       -0.34002817 1.6904064 -0.53796655 0.30363762
000060 33 db 87 bf 16 30 8d bf 66 13 ed 3e a3 9e 32 3d
       -1.0613769 -1.10303 0.46303862 0.04360832
000070 94 ed 06 3f b0 c1 07 3f 1f 3b dd 3e fb c4 fe 3e
       0.52706265 0.5302992 0.43209168 0.4975966
000080 ca 8a 4f 3f 38 3b 20 3e dd c4 29 3e 5f b0 46 3e
       0.8107115 0.1564759 0.16579004 0.19403218
000090 d7 b4 3a be d4 ba be 3e bb bb b3 3e 33 ef 17 bf
       -0.18233047 0.37251914 0.35104164 -0.59349364
0000a0 82 e0 1c 3e c5 ca 07 bd 19 0e 39 be d9 24 8e 3e
       0.15320018 -0.03315236 -0.18071784 0.27762488
0000b0 15 62 52 3f 5d 08 e2 bd c0 54 a1 3e f0 07 d0 be
       0.8218091 -0.110367514 0.31509972 -0.40631056
0000c0 ed 4c 04 bf e3 37 3e 3e be d1 1b bf 1c 52 9f 3e
       -0.5167988 0.18576007 -0.60866916 0.31117332
0000d0 a4 c7 00 bf 77 95 a2 be b7 29 95 3e a0 67 3c bd
       -0.5030463 -0.31754658 0.29133388 -0.045997262
0000e0 93 d1 2e 3f 22 76 ef 3e ba b1 9c 3e 08 85 cb 3e
       0.68288535 0.46769816 0.30604345 0.39749932
0000f0 2a 2c 94 3e 4e e9 80 3d 20 f7 92 bb 88 ca a8 3d
       0.28939945 0.06294499 -0.004485026 0.08241755
000100 3d fe 04 3f b9 d0 06 bf ad 2b b3 3f 88 e4 a7 be
       0.51950437 -0.52662235 1.3997704 -0.32791543
000110 ec aa 91 3f 03 36 6d bf 0a d4 3b bf f3 d3 a3 3e
       1.1380286 -0.9266054 -0.7337042 0.31997642
000120 b2 4f e5 3f 64 79 2a be 32 9c 02 3f 9b e8 d9 3e
       1.7914946 -0.1664787 0.51019585 0.42560276
000130 be f6 1d 3f 6c 5d 65 be 91 72 da 3e 76 13 80 be
       0.61704624 -0.22398919 0.42665532 -0.25014848
000140 ac a9 82 be 62 bd ad be b0 c5 35 3f cd 91 c9 bb
       -0.25520074 -0.3393355 0.7100477 -0.006151414
000150 06 f8 05 bf 4a a3 c5 bd e0 69 8a be 83 e7 85 be
       -0.5233158 -0.096502855 -0.270339 -0.26153192
000160 ac 29 5c 3f 70 aa 04 bf 90 23 ef 3e 8d ee 04 bf
       0.86001086 -0.51822567 0.4670682 -0.519265
000170 e2 ec 04 bf b7 cd 04 bf 86 be 04 bf 2a ed fc 3e
       -0.51923954 -0.51876396 -0.51853216 0.49399692
000180 bc 59 0a 3e b9 30 f9 3d f7 4a 67 3f 91 f1 f0 be
       0.13510793 0.12167496 0.9034876 -0.470593
000190 1f b6 95 3f 0d df 3d 3e 21 51 cc 3d e4 63 10 3e
       1.1696204 0.18542118 0.099764116 0.14100605
0001a0 14 74 98 be df a1 3d be 0f 5e 85 3e 65 7d 3a 3e
       -0.2977606 -0.1851878 0.26048324 0.18211897
0001b0 66 f9 23 3f 45 ab bb 3e 00 00 93 3f 9c e6 b5 3c
       0.64052427 0.36654106 1.1484375 0.02220469
0001c0 1e 12 a0 be b4 6b c9 3c 4e b5 91 3e fc b2 38 3f
       -0.31263822 0.02458749 0.28458637 0.7214811
0001d0 fb 44 a5 3e f1 12 82 3f 04 01 dd 3e 22 52 f0 3d
       0.3227919 1.016203 0.43164837 0.117344156
0001e0 75 d3 42 bf 9f 27 21 3f 4f 6a 86 be 46 8f 06 3f
       -0.7610391 0.6295108 -0.26252982 0.5256237
0001f0 ea c3 4e bc 36 ae a3 3d 94 68 89 3c d8 ec 9a 3e
       -0.012619952 0.079922125 0.0167735 0.30258822
000200 50 7a d3 3e 3f 4c 4f bf ba a1 8c 3f db 9d 92 3e
       0.41304255 -0.8097572 1.0986855 0.2863606
000210 12 b8 07 3f 9a e2 80 3f 98 b8 4b 3e f5 08 e0 3f
       0.53015244 1.0069153 0.19894636 1.7502733
000220 6f 9b 81 bf be ed d9 be 03 09 56 be 19 1b 15 bf
       -1.012556 -0.42564195 -0.20901875 -0.5824447
000230 1e 48 9e be 95 6b 88 3f f7 2b d5 3e e9 d1 8b be
       -0.30914396 1.0657831 0.41635105 -0.27308586
000240 1d 9a a9 be 08 3b df be 72 78 1e be 70 2b fc 3f
       -0.33125392 -0.43599725 -0.15475634 1.9700756
000250 07 40 db be 37 af 1b 3f 00 a4 81 bf e0 78 5d bf
       -0.42822286 0.6081423 -1.0128174 -0.86512566
000260 0b 1d 2f 3f 09 68 a7 3d 3e d5 34 3f b1 6d 35 3f
       0.6840369 0.0817414 0.7063788 0.708705
000270 09 d3 24 3f 2b 67 33 3f 0d e6 1c bf 0f ee 9d 3e
       0.64384514 0.70079297 -0.6128853 0.30845687
000280 c9 dc 24 be de 00 41 3e 7a 52 95 be 96 be 5a 3d
       -0.16099848 0.18847987 -0.29164487 0.053404413
000290 96 32 36 3f fa 70 f2 be 92 09 ab 3e b7 a2 25 be
       0.7117094 -0.4735182 0.3340574 -0.16175352
0002a0 2c f3 3f be bd 51 49 3f 3d d5 77 3f 28 0f 80 be
       -0.18745106 0.7864035 0.9680975 -0.25011563
0002b0 a0 df 8a 3e 56 11 0d bf 59 89 01 bf 27 e8 e3 be
       0.27123737 -0.5510458 -0.506002 -0.44513056
0002c0 34 cd 1e bf 3e c6 84 3e ff 62 19 bf 2c 9e ac be
       -0.62031865 0.25932497 -0.5991668 -0.33714426
0002d0 db df 37 3e 2d 68 17 3e 0a 9b 83 3f 1b b6 15 3f
       0.17956488 0.14785834 1.0281689 0.58480996
0002e0 ca 58 f4 3e 5e e2 e0 3e 6e 2d 4f bf d1 29 8c 3d
       0.4772399 0.43922704 -0.80928695 0.06843913
0002f0 7a a1 a9 3d 46 3e e9 bc 47 87 55 3f 1d fc f6 be
       0.08282752 -0.028472077 0.8340954 -0.48239222
000300 97 57 9e 3f dc e6 dc 3e 84 2e 84 3f a2 73 1f bf
       1.237048 0.43144882 1.0326695 -0.62285817
000310 32 63 f2 be e7 59 68 3e d5 93 53 be b8 fb 52 be
       -0.47341305 0.22690545 -0.20661862 -0.20603836
000320 d1 48 41 bf a3 8f d0 be 89 b1 f5 3e 7f 25 5d 3f
       -0.75501734 -0.40734586 0.4798701 0.8638534
000330 c1 f2 85 3f f3 34 fb bd b5 06 9f 3e 49 5a 24 3d
       1.0464708 -0.12265959 0.31059805 0.040125165
000340 48 fa a8 3e 05 44 68 3f b2 32 83 3f 91 54 84 3f
       0.3300345 0.9072879 1.0249846 1.0338308
000350 69 db a8 bd 6f 18 92 3d 40 02 2b 3f 9d bb 51 be
       -0.08244974 0.071335666 0.6680031 -0.20481725
000360 83 96 ae 3e 51 94 52 be bb cb 51 be a3 39 51 be
       0.34099206 -0.2056439 -0.20487873 -0.20432143
000370 e8 60 52 be 71 ec 94 be 4a f4 ce 3e 12 3e c6 3b
       -0.2054478 -0.2908664 0.40420753 0.00604988
000380 39 83 22 3f 0c 8d 16 be f3 b1 a7 3f 2e e1 ee 3e
       0.6348148 -0.14702243 1.3101181 0.46656173
000390 48 19 2a 3e da 0b 63 be 40 f5 9c be 9d 6f 55 3f
       0.16611207 -0.2217249 -0.3065586 0.83373433
0003a0 8a ce dd 3e f3 c6 20 be c9 c2 b2 3e b4 f4 bc 3e
       0.4332164 -0.15700893 0.34914234 0.36905444
0003b0 81 a1 4d 3f ea 0d 96 3f 2d 8f 3a 3e 4c 1b 01 3d
       0.8032456 1.1722996 0.1821868 0.031520173
0003c0 fa d9 77 3e 7d 75 17 3f 9f 62 2d bf c1 1b 33 3f
       0.24204245 0.5916365 -0.6772861 0.69964224
0003d0 c2 c1 ec 3e ce db 11 bc 0e 6e 28 bf 25 33 62 3f
       0.46241575 -0.008902503 -0.6579293 0.8835929
0003e0 9d d8 6e bd f8 23 8b 3d 52 ec 7e 3e 00 48 0a be
       -0.058312047 0.0679397 0.24894837 -0.13504028
0003f0 7f c8 a7 3e 21 db 02 be 56 f6 c6 3e 59 8a 94 3e
       0.32770154 -0.12778904 0.38859814 0.290118

l1.bias f4 [8]
000000 d2 96 9a 3f 39 78 04 3f c8 87 81 3f 83 bc 4e 3e
       1.2077277 0.51745945 1.0119562 0.20189099
000010 1f 16 50 3f 73 9b ed 3e e6 a6 04 3f d0 4d 1c 3f
       0.81283754 0.4640766 0.51817167 0.6105623

l2.weight f4 [8, 8]
000000 73 fb 7e 3e af 26 a0 3d 39 d4 80 3f 70 58 66 3f
       0.24900608 0.07819878 1.0064765 0.89978695
000010 80 13 c0 bf 84 a7 f5 be 00 06 80 bd dc aa 7b 3f
       -1.5005951 -0.47979367 -0.062511444 0.98307586
000020 54 00 99 3f 62 6e b6 3e 16 f4 8e 3f 91 50 4e bf
       1.1953225 0.3563109 1.1168239 -0.80591685
000030 e5 53 bb 3d 98 d1 d8 be d4 59 f6 3f 40 ad ab bf
       0.09146861 -0.42347407 1.9246163 -1.3412247
000040 2e 43 93 3f 5e 68 2a 3f 9a 0c 92 3f c1 27 39 be
       1.1504877 0.665655 1.1410096 -0.18081571
000050 67 73 80 bf 0a ec 86 bf 88 f0 ae be 09 b9 9b 3f
       -1.0035218 -1.0540783 -0.34167886 1.2165843
000060 a3 60 e8 be 52 d4 63 3f fc 62 34 bf 1d 43 1d 3f
       -0.45386228 0.8899585 -0.7046354 0.6143053
000070 00 a2 d2 3f 9a 31 46 3f ec f7 3e be 90 f2 f2 3e
       1.6455688 0.77419436 -0.18649262 0.47450686
000080 7c 27 2d 3f d4 e8 b9 3f ec da a3 3d 9c 43 c4 3f
       0.67638373 1.4524179 0.080007404 1.5333133
000090 4d 68 63 bf fc fe d3 3f a5 28 c2 3d e6 93 a0 3f
       -0.88831025 1.656219 0.094804086 1.2545135
0000a0 d0 85 81 3e 68 0a 8b be 26 dc 60 b9 73 c9 52 3e
       0.25297403 -0.27156377 -0.00021444316 0.2058466
0000b0 26 7b c1 bd 96 43 ed bd b0 5f 53 be 85 cd a4 be
       -0.09447317 -0.115851566 -0.2064197 -0.3218805
0000c0 ac a9 92 3e 47 18 41 be 45 42 70 3d 23 96 18 be
       0.28645074 -0.18856917 0.05865695 -0.14901023
0000d0 17 96 83 be 1d b5 b4 be 8e 40 96 be 3c e4 77 be
       -0.25700447 -0.35294428 -0.29346126 -0.24208158
0000e0 23 de a0 3f f9 4d 1d bf ab 61 99 3f ad 42 51 bf
       1.2567791 -0.614471 1.1982931 -0.81742364
0000f0 cd 36 9e 3f 7b 93 bc 3f 1d a4 b0 bf 3b 0d 9e 3e
       1.2360474 1.4732507 -1.3800083 0.3086947

l2.bias f4 [8]
000000 9f 70 46 3e f8 2d 24 3f 23 79 26 3f 33 44 e6 3e
       0.19378899 0.6413264 0.6502859 0.44973907
000010 96 4c c1 bd 1f 3f 97 be df 48 93 be 79 9d 59 3f
       -0.09438436 -0.29540345 -0.28766534 0.8500591

l3.weight f4 [14, 8]
000000 50 79 7a bf 97 4b ed be 69 72 8c bd 54 ab 21 bf
       -0.9784136 -0.46346733 -0.068577595 -0.6315205
000010 02 35 4d bd f4 d2 e9 3d 6c c6 11 be e9 06 58 3e
       -0.05009938 0.11417189 -0.14235848 0.21096386
000020 1e ca 3e 3e fd 3d 14 bf 39 8d c4 bf 36 97 48 bf
       0.18631789 -0.57907087 -1.5355598 -0.7835573
000030 17 a8 01 3f 94 cf 1a be d9 3f 5b be 3c 38 da bf
       0.5064711 -0.15118247 -0.21411075 -1.7048411
000040 55 43 3e bf ae 82 26 3e 91 cd 1b 3f b8 20 c6 bf
       -0.7432149 0.16260788 0.60860544 -1.5478735
000050 a1 73 06 bf 17 95 a2 3e d0 67 93 3d 0a 9e 34 3e
       -0.52520186 0.31754372 0.07197535 0.17638412
000060 71 13 40 c0 74 f6 0f 3f 95 6f f5 bf ed b8 6a be
       -3.0011866 0.5623543 -1.9174677 -0.22922106
000070 1d 88 9c bf 67 e5 0d 3e 72 08 c1 3d 57 5c 13 3e
       -1.2229038 0.13857041 0.09425439 0.14390694
000080 4c 7d 00 c0 63 df 56 c0 ac f2 01 3e 9b b4 91 be
       -2.0076475 -3.3573844 0.12690228 -0.28458104
000090 89 38 cf 3e 79 a9 70 be b4 25 81 be 48 a8 4e be
       0.4047282 -0.23502149 -0.25224078 -0.20181382
0000a0 40 bc 42 3f 6b c5 ef bf 9f 18 03 3f 1c 69 88 bf
       0.76068497 -1.8732122 0.51209444 -1.0657077
0000b0 ef 38 e6 3d 53 db 6e 3e 0d 6c aa 3e 3a 90 0e c0
       0.11241328 0.23325853 0.3328556 -2.227553
0000c0 94 b3 a6 3e 09 76 43 c0 54 8a 01 3f 6d 3f 83 bf
       0.32558882 -3.0540793 0.50601697 -1.0253731
0000d0 b8 4e ad bd ba 6f 30 be d7 c3 a5 3e a1 4a 57 be
       -0.0846228 -0.1723012 0.32375976 -0.21024562
0000e0 30 ec 56 c0 6a 7b 0a c0 f4 3f b1 bf 7c 93 25 bf
       -3.3581657 -2.1637826 -1.3847642 -0.6467817
0000f0 ce 4d 30 be b6 0f 70 3d ae a7 40 3e a7 8e 89 3f
       -0.1721718 0.058608733 0.18813965 1.0746659
000100 b3 97 5d be 54 7e da be f3 97 eb 3e 95 77 d6 bf
       -0.216399 -0.42674506 0.46014366 -1.6755244
000110 8d 56 da be 75 a3 30 be 18 2e 35 be 42 3e ed 3e
       -0.42644158 -0.17249854 -0.17693365 0.4633656
000120 09 d5 b2 bf 80 57 15 c0 99 6c 18 bf fe b9 76 3f
       -1.3971263 -2.3334656 -0.59540707 0.9637755
000130 cd 71 23 c0 6f 54 82 bd bc e7 95 3e f3 fb 36 3f
       -2.5538208 -0.06363761 0.29278362 0.71478194
000140 b0 9b 2a c0 55 44 b1 3f 0d 7c eb bd 02 a2 13 c0
       -2.6657524 1.3848978 -0.1149827 -2.3067632
000150 70 9c 2f c0 29 cb a7 be 65 38 b0 bd 2f 3f bc 3e
       -2.7439232 -0.32772186 -0.086045064 0.36766955
000160 67 92 f8 bf 2d 0c 09 c0 7d c2 8f bf 90 48 3c 3f
       -1.9419678 -2.1413682 -1.1231228 0.7354822
000170 ab d9 83 3e 73 d7 89 3e 29 21 d8 bd 19 c3 e1 bf
       0.25752005 0.26922187 -0.105532 -1.7637664
000180 73 32 03 bf 74 59 1b c0 60 cb 2d 3e 51 d0 1d 3e
       -0.51248854 -2.4273348 0.16972113 0.15411498
000190 11 a8 69 3e 13 02 82 3e 20 5b ac 3e cc b2 d7 bf
       0.22818018 0.25392208 0.33663273 -1.685144
0001a0 67 25 b1 bd 8e df 5d 3f 31 d8 9b 3e ef c4 f5 bf
       -0.08649712 0.8666924 0.30438378 -1.9200724
0001b0 84 f1 19 be 9e 23 38 be 03 ea ac 3d 7e ca 30 c0
       -0.15033537 -0.17982337 0.08443072 -2.7623591

l3.bias f4 [14]
000000 31 a2 64 3e c3 fa 9b 3d ac ba 1c 3d 95 a7 15 3e
       0.22327496 0.076161884 0.03826396 0.14614709
000010 42 04 d0 be f6 95 d2 be 5b 4e 52 bf 42 4b e0 be
       -0.40628248 -0.41130036 -0.8215081 -0.43807417
000020 68 45 e0 3d 40 e7 cb 3e fe b9 7b 3e 0d 45 23 be
       0.10950738 0.39824867 0.24582669 -0.1594431
000030 41 70 d1 be db 66 0e 3f
       -0.40905955 0.55625695
