data.pth (torch, 5567 bytes, 6 tensors)

l1.weight f4 [8, 58]
00000000: 1879 d7be 9ff8 cc3e 246e 46bf ca46 f7bd
00000010: 1467 693f 97bb a3be dd21 763f 66e3 43be
00000020: 041e 90be d027 5e3e d7f6 103d e059 0d40
00000030: ff1d 0e40 8071 c8be 86b6 d5bc 4d8b 2640
00000040: 0a21 da3f 190e 47bf 866c a13f bc7d 11be
00000050: 9e43 47bf d89a 47bf deb4 3dbf 5e62 623f
00000060: bb59 6f3f fbf2 a5be d870 cabe 2c8e fd3f
00000070: e37a b63e 5ef0 23bf 2451 5ebe 746a 45bf
00000080: 354b 45bf 1658 2dbf 43eb 38bf 9a16 d23f
00000090: 6d64 8bbe eb37 cd3e c35b 45bf 8ad8 a1bd
000000a0: ced7 e3bd 6781 49bf af3b 743f f58b 47be
000000b0: cd56 dabe 5450 083f abae f7bb 8753 af3e
000000c0: 9148 45bf 19bc 2240 1e57 47bf b2da 0ebe
000000d0: 6c1c 2340 c2cf 24be 47d7 1240 8333 21be
000000e0: d884 093e 1bd8 0bbe d2c7 53be d2bc 243c
000000f0: 01f3 db3d 00db 2040 89d8 dcbe 27b2 0a40
00000100: e837 eabe ebfe b3be e72d 26be eb59 ddbe
00000110: 0280 213f 8b2a b03d 733c b33c 9575 58be
00000120: dfe9 773e 1181 d33f c250 ddbe 4000 f53f
00000130: eb3b d0bd c782 7ebe 15ae d33f 990a ef3f
00000140: 2636 9c3d 5fb9 e4be fa26 debe a2e7 36be
00000150: 157b 58be b270 dcbe 65b6 81bd cfb7 dabe
00000160: ccea 48bd 1747 dbbe eead dbbe f251 dabe
00000170: 4c47 dbbe 4a2a e2be 3874 63be 935e 303d
00000180: 3a24 5c3e b312 bbbd 724d 04be 4af1 c53f
00000190: 6af8 dcbe 02fb 1b40 5315 d63d cdf5 e8be
000001a0: 90b1 0bbb c25d f8bb 2de8 a93d 9f1a d93f
000001b0: 25bf ddbe 9309 3bbe 02ce 0040 f54f 94be
000001c0: c07b 9b3c 04bf 613f 04cd 493d e600 c3bd
000001d0: aefb 743f 6f2c 91be 7af9 2abf d8db 2bbf
000001e0: a3eb dcbe e4db 2dbf 99e6 bfbe 877c 343f
000001f0: 0d7d 293f f222 cd3e 0d5f 4e3f 2e7d fe3f
00000200: 0810 fe3f ec46 d93f 5b0c 02bb 61a8 0fbf
00000210: 1f58 e23d b9eb a13f 296d 2fbf cd04 2a3f
00000220: ed9d 2ebf ed1f af3f a22c 2bbf 557f f6be
00000230: ca18 0940 aed3 1b3f e8b0 d43f 3d62 733e
00000240: 2b8f 97be cd3a 803f 4995 373f afd2 6c3f
00000250: 744b 663f e794 763f a5c9 723f 8175 863d
00000260: 81f0 8fbe 7d93 9bbe a23a b5be 2f26 203f
00000270: 9277 0e3f bf19 c13f 4561 dcbe 8b37 2cbf
00000280: f81d 073f f897 193f d54e 0a3f bdfe 90be
00000290: 0e3a 2bbf ebe0 ebbe 6409 e73f ca01 573f
000002a0: 3f04 13bf 01d2 403f c2a0 f43f 4c80 eebe
000002b0: 629d 733f bd65 8d3f 1392 753f 1e28 833e
000002c0: aac5 e53f e22e 433f 2e18 b4bc 271c 373f
000002d0: 81b3 463c ce83 51bf b85b 0fbf e83c e33d
000002e0: fc0d 11bd 36d7 2fbf 5219 30bf 1b3b 2fbf
000002f0: 2549 d8bd 5787 a23f fc4f 3440 81ab c3bd
00000300: 7dcd 1d3f 9a90 6ebe 4aec 0840 8a18 91bd
00000310: 651d ff3f ada9 aebd 7f69 32bf 7299 8bbe
00000320: d5c3 2fbf ad15 5d3f 61f5 993e 8cc6 1bbf
00000330: 4f7b 2c3f a747 09bf 6d94 11bf ceb2 16bf
00000340: 1779 2cbf 4cc8 2c40 4ba3 d5bc c1fb 8e3e
00000350: e0d3 e43f d648 b9be b617 af3e 0872 103d
00000360: 64c6 91bc cdc0 4a3f 77b5 713d ef5d 36bf
00000370: 49e1 a6be ab1a 903e fe45 e63f 3702 a53f
00000380: 5266 e93f 4214 2e3f 6b87 a73f 68ed 50bf
00000390: 1645 31bf 4282 303f 6650 433e a547 973d
000003a0: 2cdd cabd 10ff ec3d 9c04 fcbe 1b61 d53f
000003b0: 15b9 9ebe 1173 f23f f29f 9dbe 7794 9b3f
000003c0: 1210 8f3f dab9 eebe 815e 233f 8b04 0040
000003d0: b58e 0040 ffe2 fcbe 1007 81be a4ae 0c40
000003e0: ce72 fcbe 2ed4 613f a7d5 113f e938 543f
000003f0: f9a1 fabe 83b8 703f 411d fbbe 2759 c7be
-0.42084575 0.40033433 -0.7751181 -0.12074049 0.9117291 -0.31979057 0.9614542 -0.19129714
-0.281479 0.21694875 0.035391655 2.2086105 2.2205808 -0.39149094 -0.02608801 2.6022522
1.7041333 -0.77755886 1.2611244 -0.1420812 -0.7783755 -0.7797065 -0.74104106 0.88431346
0.9349629 -0.32411942 -0.39539218 1.9809012 0.3564063 -0.64038646 -0.2171064 -0.7711556
-0.7706788 -0.67712533 -0.7223398 1.6413147 -0.27225056 0.40081725 -0.7709314 -0.0790263
-0.11125146 -0.7871308 0.9540357 -0.19486983 -0.4264435 0.5324757 -0.007558664 0.34243414
-0.7706385 2.5427306 -0.77867305 -0.13950613 2.5486097 -0.16094878 2.2943895 -0.15742306
0.13429582 -0.13656656 -0.20681694 0.010054784 0.10739709 2.5133667 -0.43133953 2.1671236
-0.45745778 -0.35155424 -0.16228448 -0.43232664 0.6308595 0.086018644 0.02187941 -0.21138604
0.24210308 1.6523763 -0.43225676 1.9140701 -0.101676784 -0.24854575 1.6537501 1.8675109
0.076275155 -0.44672677 -0.43389112 -0.17861798 -0.21140702 -0.4305473 -0.06333617 -0.4271836
-0.049052045 -0.42827675 -0.42906135 -0.42640644 -0.42827833 -0.4417289 -0.22212303 0.043058943
0.21498194 -0.09134426 -0.12920168 1.546426 -0.43158275 2.4371953 0.10453286 -0.4550003
-0.0021315552 -0.007579536 0.08296237 1.6961249 -0.43309894 -0.18265371 2.0125737 -0.28967252
0.018979907 0.8818209 0.049267784 -0.09521656 0.9569653 -0.28354213 -0.6678692 -0.6713233
-0.43148527 -0.6791365 -0.3748062 0.70502514 0.6620644 0.40065724 0.80613786 1.9881952
1.9848642 1.6974769 -0.001984379 -0.561163 0.11051964 1.2650062 -0.6852594 0.66413575
-0.68209726 1.3681618 -0.6686498 -0.48144022 2.142138 0.6086987 1.6616488 0.23767944
-0.29601416 1.0017945 0.71712166 0.9250898 0.8995888 0.96320957 0.94838935 0.06565381
-0.28113177 -0.30385962 -0.35396296 0.62558264 0.556512 1.5085982 -0.4304296 -0.6727225
0.52780104 0.5999751 0.5402654 -0.2831935 -0.6688546 -0.46070036 1.8049741 0.83987105
-0.57428354 0.7532044 1.9111559 -0.46582258 0.9516202 1.1046673 0.95926017 0.25616544
1.7950947 0.7624341 -0.021984186 0.7152733 0.012127758 -0.81841743 -0.55999327 0.11095601
-0.035413727 -0.6868776 -0.68788636 -0.6844956 -0.10560826 1.2697552 2.8173819 -0.09554196
0.61641675 -0.23297349 2.139422 -0.070847586 1.9930845 -0.08528457 -0.69692224 -0.27265507
-0.6865819 0.863612 0.30070022 -0.60849833 0.67375654 -0.5362496 -0.56867105 -0.58866584
-0.6737227 2.6997252 -0.02607884 0.27926448 1.7877159 -0.36188382 0.34197778 0.035265
-0.017794795 0.7920044 0.05901095 -0.7123708 -0.32593754 0.28145346 1.799011 1.2891301
1.8234351 0.6799966 1.3088201 -0.81612253 -0.6924604 0.6894876 0.19073638 0.07386712
-0.099054664 0.11572087 -0.49222267 1.6670259 -0.3100058 1.8941365 -0.3078609 1.2154683
1.1176779 -0.46626168 0.63816077 2.0002773 2.0087101 -0.49391934 -0.252007 2.1981592
-0.4930634 0.88214386 0.5696663 0.8289934 -0.489517 0.9403154 -0.49045756 -0.38935205

l1.bias f4 [8]
00000000: 201f 443f eadc d83e 536e 2a3f d75c 2e3f
00000010: f377 f63e a7ed 183f e60c ee3e cc0f 4e3f
0.76609993 0.42356044 0.6657459 0.6811041 0.4813839 0.5973763 0.46494216 0.80492854

l2.weight f4 [8, 8]
00000000: 49dd dc3b e5bd e5bc b30f 293f 0fd7 903f
00000010: 168a b6bf 3571 5e3e 3f34 1fbf 0191 933d
00000020: c99f 1abf b7d4 9fbf 6352 083f 78b3 863f
00000030: 1dc0 8d3f ac95 9a3f bb30 aabf bace 63bf
00000040: 27a7 1c3f 8ecf 233f 4704 df3d f6e0 abbd
00000050: 26af 663f 3e10 4e3f c0a8 6a3f cf41 28bf
00000060: fa4b 55be e11c 0f40 5c17 7cbe 2464 0e3f
00000070: 99e2 9b3f 2d45 09bc c596 a03f ada8 d33e
00000080: 51dc 263f 7667 86bf ee93 6bbf 0e6b 943f
00000090: 92e6 8bbe 0d24 2a3f 3965 f13c 2a15 e43f
000000a0: 0c5d fcbe aae8 1e3e b334 8d3f 32e7 a53f
000000b0: 3bb2 90be 4596 c93f c06c 803e a62a 15bf
000000c0: d5d5 0540 5d85 b93e 4962 25bf db19 6c3f
000000d0: dd6d 583f a92d a0bf 7df4 493f 86e8 c63f
000000e0: e98b b83e e86d 11bf 6951 2540 7441 73bf
000000f0: a338 293f b6d5 cd3f ad9b 24bf b304 fa3c
0.0067402464 -0.02804465 0.6603958 1.1315631 -1.426089 0.21722873 -0.62189096 0.07205392
-0.6040006 -1.248679 0.5325071 1.052352 1.1074253 1.2076926 -1.3296121 -0.88987315
0.61192554 0.6398858 0.10889488 -0.08392517 0.90111005 0.80493534 0.9166374 -0.65725416
-0.20829764 2.2361376 -0.24618286 0.5562155 1.2178527 -0.008378309 1.2546011 0.41339627
0.65179926 -1.0500324 -0.920226 1.159517 -0.2732435 0.6646126 0.029467212 1.7818959
-0.4928974 0.15518442 1.1031708 1.296118 -0.2826098 1.5748984 0.2508297 -0.582682
2.0911763 0.3623456 -0.64603096 0.9222695 0.8454264 -1.2513934 0.78888685 1.553971
0.36044243 -0.5680833 2.583094 -0.9502175 0.66102046 1.6080844 -0.6430004 0.030519819

l2.bias f4 [8]
00000000: 4e49 f23e 94f3 7fbe 4bf2 80be 198c 28be
00000010: 7a78 223f d496 283f 1e0f 513f 5094 153f
0.47321552 -0.24995261 -0.25184855 -0.16459693 0.6346508 0.65855145 0.8166369 0.5842943

l3.weight f4 [14, 8]
00000000: 1524 723f 365b f0be c444 65bf 810e 15bf
00000010: e501 343e 3f6a 373e cb23 19bf 6689 08bd
00000020: 4fbc f4bf 863b 86bf 173a de3e a56e 1b3f
00000030: 36da 8cbe fd30 a73d 8860 75bf fc9b a53e
00000040: efcc fb3d 9f81 8fbf 7ed8 cf3e cc16 663d
00000050: fb4c ecbf d9ad 97be 698a dc3d 3ef0 bf3e
00000060: 6f4c 99bf fd46 9ac0 d2f7 583f 6c34 883e
00000070: ff99 c2be 9865 27bf 4588 a13e 4164 7fbf
00000080: 4345 8fbe 75e1 95c0 d800 88bf d349 3abf
00000090: 02aa d43e 79af 8dbe 5078 f73e 1dce 49bf
000000a0: 8a05 45bf eeb0 8bc0 2b85 e5be e660 5bbe
000000b0: 5d73 003f 8547 ccbf bd70 e63e 242d d1be
000000c0: 2018 ddbf 741c 63c0 210f c2be 0d3c 343f
000000d0: e533 c4bd 01c4 93bf 5289 db3e 7520 7abf
000000e0: a704 48bf 7259 a2c0 77c2 a4be 8989 f23e
000000f0: 159d 8d3e 93ec 91bc 0663 89bd 40a3 9ebf
00000100: c863 57bd 388f 3ebf 6e0a 93be eb99 b5bf
00000110: eca6 c9bd 57fb 073f 29f0 7bbf 57f3 093f
00000120: ff3a 403f 5723 9fc0 e888 8ec0 6d23 9cc0
00000130: bc2a 21c0 473e 353f c658 4fbf a9b2 ae3f
00000140: 3d98 03c0 e4a7 e23f 1888 1e3e efb4 cebf
00000150: 5f6a 2ac0 e208 88be 9edd 20c0 a9e4 463f
00000160: 4f98 58bf 372b f3bf 58e9 efbe 75f4 1fbf
00000170: e764 dc3e c7b3 9bbf 2414 d13e 5849 933e
00000180: e0e9 58bf 9467 95c0 daa7 5abf 60fb 9bbe
00000190: 87f1 2f3f a35a a4bf e2e9 083e 08f1 8e3e
000001a0: 9033 303f 552b b13f b6d5 b1bf 9be1 23c0
000001b0: b437 4bbf a5ee 563f 4ed0 64c0 df74 42be
0.94586307 -0.46944588 -0.89558053 -0.58225256 0.17578848 0.17911623 -0.5982024 -0.03333416
-1.9119967 -1.0486915 0.43403694 0.60715705 -0.27510232 0.08163641 -0.9585042 0.3234557
0.12294947 -1.1211432 0.40594858 0.056174085 -1.8460993 -0.29624823 0.10768587 0.37487978
-1.1976451 -4.8211656 0.84753144 0.26602495 -0.38008115 -0.65389395 0.31549278 -0.9976235
-0.2798253 -4.6837716 -1.0625257 -0.72768897 0.41535956 -0.27672938 0.4833398 -0.7883013
-0.76961577 -4.365348 -0.44828162 -0.21423683 0.5017603 -1.5959326 0.45007887 -0.40854752
-1.7272987 -3.5486116 -0.37902167 0.7040413 -0.095802106 -1.1544191 0.42878205 -0.97705775
-0.781321 -5.0734186 -0.32179615 0.47370556 0.27658907 -0.017813003 -0.0670834 -1.239357
-0.052585393 -0.74437284 -0.28718895 -1.4187597 -0.09846291 0.5311789 -0.9841333 0.5388693
0.7509002 -4.973064 -4.454212 -4.8793244 -2.5182333 0.7079815 -0.8099483 1.3648273
-2.056167 1.7707486 0.15481603 -1.6148967 -2.6627424 -0.26569277 -2.5135264 0.7769266
-0.84607404 -1.8997563 -0.46857715 -0.62482387 0.43045732 -1.2164239 0.4083568 0.28766894
-0.84731865 -4.668894 -0.8541237 -0.3046522 0.68727916 -1.284016 0.13370469 0.27918267
0.6882868 1.3841349 -1.3893344 -2.5606449 -0.7938187 0.8395789 -3.575214 -0.18989895

l3.bias f4 [14]
00000000: b2b0 ba3e fbfc 10be 592d 97bd 55b2 783d
00000010: 950d 813e 9d6a 31bd dec0 9f3e e964 84be
00000020: 67d8 073e 7c9d 453f 7444 343d 4ba0 b2be
00000030: 83db 8f3c d8d7 82bf
0.36462933 -0.14159004 -0.07381696 0.060716946 0.25205675 -0.043314565 0.31201833 -0.25858238
0.13266145 0.7719343 0.044010594 -0.3488792 0.017560726 -1.022212
